RL/ND_Projects/RLND1-DQN_Project/checkpoint.pth (torch_old, 28393 bytes, 6 tensors)

fc1.weight f4 [64, 37]
0.068858944 -0.07015856 -0.053688552 -0.20322645 -0.06360652 0.13185379 -0.324643 0.15572837
-0.14792919 -0.2264883 -0.15209457 -0.040613223 0.07093232 -0.1475189 -0.36632586 -0.30650115
0.009994573 0.24696164 0.10279413 0.015049109 0.10531537 -0.041028216 0.088396244 0.021637185
-0.16856027 0.06351767 0.19049028 -0.17476062 -0.3115192 -0.29063743 -0.22551791 0.2689858
-0.053615585 -0.020020135 -0.1316917 -0.072272256 -0.02782105 0.16578068 -0.0069275154 0.11675035
0.018544465 -0.1908244 0.16428138 -0.70924056 -0.16508576 -0.20603977 -0.29107144 0.1083669
-0.001006395 -0.02164596 0.094610356 -0.061744682 0.18613087 0.017433496 -0.08368351 0.0123800365
-0.103932135 -0.04373977 -0.13329253 -0.06004256 -0.0409326 0.10888735 -0.023525259 0.028142154
-0.031634886 0.015931217 -0.05301791 0.1758203 -0.07140412 -0.05309788 0.16304398 0.2829334
-0.06312686 0.032213643 0.0053675435 0.13586907 0.102342494 0.11581608 -0.1533718 -0.63309693
0.10694465 0.27058345 0.003181508 -0.41583022 -0.15102324 0.12373142 -0.12337998 0.20833388
0.040321425 -0.009946289 0.028095793 0.06412145 0.10450621 0.065455236 -0.45658273 0.14480473
0.08272204 -0.007871485 -0.3486679 -0.110660374 0.15023236 0.10912072 0.1692085 0.02971661
-0.41654822 0.079497725 0.070821255 -0.089735 -0.36126843 -0.038839046 -0.01005462 0.18115637
0.18760076 0.04439573 0.022370636 -0.1868234 0.0035285952 0.0023061214 -0.008542828 -0.035808746
0.06674395 -0.054981202 0.029464493 0.009179243 0.019120704 -0.055432845 -0.05341536 -0.21483387
-0.022889461 0.031431608 0.020715738 -0.0067787413 -0.0051150704 -0.09941229 0.07073777 0.041504387
-0.07423835 -0.19136444 0.19015695 0.2320466 0.37272978 0.24119748 -0.04723798 -0.3021471
-0.35142726 -1.741526 -0.039961584 0.0024238368 -0.11900992 -0.113041505 -0.11217167 -0.20606638
0.1018197 0.09602388 0.317373 -0.1676671 -0.01748668 -0.57523245 -0.041950073 -0.061822042
-0.08641619 0.06013723 -0.21816677 -0.17428531 -0.01885889 0.08981559 -0.09127667 0.04833761
-0.2389919 -0.17502606 0.15644652 0.25868642 0.11298454 0.011790458 -0.08149678 0.06238451
0.17456317 -0.055493325 0.2674266 -0.33289546 -0.20851225 -0.09454172 -0.5663373 0.058986183
-0.012199992 0.026337683 0.03572844 0.015728647 0.032349203 -0.049178194 0.3189782 0.2840701
-0.3348468 -0.34148285 -1.2782613 0.095884375 -0.12026478 0.039886095 -0.17225768 -0.013581558
0.02387439 0.07745096 -0.037557654 0.08849795 -0.08867807 0.09898883 0.109673955 0.11209397
0.15282951 0.19119427 -0.0012849404 0.044682346 0.059014983 0.07026789 0.16607209 0.116825365
-0.11143512 -0.11369333 0.1618735 -0.04153128 0.017465346 -0.011863504 0.2714516 -0.22971566
-0.33321387 -0.27697608 -1.6396171 -0.068658434 -0.064437024 -0.109716356 0.108862385 0.29519397
0.04120691 0.03394665 0.06866743 0.06871189 0.08091767 -0.07131442 -0.01693932 -0.037631217
0.08132867 0.28551647 0.009876776 0.013246403 0.02061274 -0.24386597 0.045106694 -0.014142259
-0.115990385 -0.050343942 -0.18472457 -0.04578077 -0.0106811 0.041753426 0.03725769 -0.06555603
00000000: eb05 8d3d 4baf 8fbd 87e8 5bbd 981a 50be
00000010: 2344 82bd ae04 073e 9b37 a6be 4277 1f3e
00000020: c07a 17be 8dec 67be aebe 1bbe 0d5a 26bd
00000030: f744 913d 320f 17be 108f bbbe b8ed 9cbe
00000040: 47c0 233c 83e3 7c3e bb85 d23d 8a90 763c
00000050: 96af d73d 340d 28bd 1709 b53d 7740 b13c
00000060: 109b 2cbe 8d15 823d e20f 433e 73f4 32be
00000070: 727f 9fbe 6ece 94be 2bee 66be 82b8 893e
00000080: 049c 5bbd 4401 a4bc 30da 06be 7a03 94bd
00000090: f8e8 e3bc 69c2 293e 3600 e3bb cf1a ef3d
000000a0: 90ea 973c 7967 43be 6139 283e ca90 35bf
000000b0: 3e0c 29be 17fc 52be 5107 95be 77ef dd3d
000000c0: 03e9 83ba de52 b1bc 13c3 c13d fee7 7cbd
000000d0: 1799 3e3e b1d0 8e3c 4362 abbd a3d5 4a3c
000000e0: 5fda d4bd 7928 33bd d67d 08be 30ef 75bd
000000f0: f1a8 27bd 5500 df3d 0bb8 c0bc 608a e63c
00000100: 9593 01bd 2f82 823c 4f29 59bd 3d0a 343e
00000110: 533c 92bd 2a7d 59bd 00f5 263e a6dc 903e
00000120: a848 81bd 74f2 033d 38e2 af3b 4321 0b3e
00000130: f198 d13d fb30 ed3d 7f0d 1dbe a412 22bf
00000140: cc05 db3d ea89 8a3e d980 503b b3e7 d4be
00000150: d6a5 1abe e666 fd3d a5ae fcbd 7a55 553e
00000160: 1428 253d c2f5 22bc 2629 e63c 1b52 833d
00000170: 5a07 d63d 650d 863d 36c5 e9be b147 143e
00000180: 2c6a a93d 67f7 00bc 9984 b2be e8a1 e2bd
00000190: 83d6 193e af7a df3d fe44 2d3e 4070 f33c
000001a0: cf45 d5be b4cf a23d bc0a 913d fcc6 b7bd
000001b0: 2df8 b8be b115 1fbd 22bc 24bc 0e81 393e
000001c0: 6a1a 403e 4cd8 353d a042 b73c a24e 3fbe
000001d0: 0140 673b 4c22 173b 38f7 0bbc 31ac 12bd
000001e0: 0db1 883d f833 61bd 855f f13c 8964 163c
000001f0: 06a3 9c3c 8d0d 63bd 11ca 5abd 69fd 5bbe
00000200: ae82 bbbc 6ebe 003d 0db4 a93c 3420 debb
00000210: 529c a7bb ac98 cbbd f7de 903d 8100 2a3d
00000220: 470a 98bd 0af5 43be 81b8 423e a09d 6d3e
00000230: 70d6 be3e 79fc 763e 9d7c 41bd 06b3 9abe
00000240: 46ee b3be 53ea debf c2ae 23bd 3cd9 1e3b
00000250: 79bb f3bd 4e82 e7bd 43ba e5bd 1103 53be
00000260: d986 d03d 2ba8 c43d b77e a23e edb0 2bbe
00000270: 3a40 8fbc 6f42 13bf d7d3 2bbd 1c39 7dbd
00000280: f9fa b0bd 7552 763d 1c67 5fbe d977 32be
00000290: f57d 9abc 3cf1 b73d 43ef babd a8fd 453d
000002a0: 4bba 74be 083a 33be 8433 203e 8c72 843e
000002b0: 7064 e73d c42c 413c c9e7 a6bd e686 7f3d
000002c0: b0c0 323e f84c 63bd 24ec 883e 4671 aabe
000002d0: 3c84 55be 179f c1bd 7bfb 10bf 7f9b 713d
000002e0: 7ae2 47bc 20c2 d73c fc57 123d 5dd9 803c
000002f0: 9980 043d 136f 49bd 1c51 a33e a371 913e
00000300: 0a71 abbe d7d6 aebe 119e a3bf 075f c43d
00000310: 624d f6bd 9a5f 233d 5164 30be 2f85 5ebc
00000320: 3a94 c33c 9c9e 9e3d 0ed6 19bd 6a3e b53d
00000330: d99c b5bd a8ba ca3d bd9c e03d 8691 e53d
00000340: 577f 1c3e 6ec8 433e 726b a8ba d604 373d
00000350: b2b9 713d 9de8 8f3d cd0e 2a3e 2342 ef3d
00000360: 1938 e4bd 0cd8 e8bd 2bc2 253e b41c 2abd
00000370: 7c13 8f3c 245f 42bc b4fb 8a3e 953a 6bbe
00000380: 029b aabe cfcf 8dbe f9de d1bf cb9c 8cbd
00000390: 8ff7 83bd f8b2 e0bd 3ef3 de3d aa23 973e
000003a0: 94c8 283d a40b 0b3d 82a1 8c3d d2b8 8c3d
000003b0: 2ab8 a53d 4b0d 92bd 54c4 8abc 3123 1abd
000003c0: a58f a63d 372f 923e 33d2 213c 7107 593c
000003d0: 0ddc a83c 00b8 79be ccc1 383d efb4 67bc
000003e0: 5e8c edbd 7335 4ebd 7028 3dbe 9e84 3bbd
000003f0: c8ff 2ebc a405 2b3d 859b 183d 3d42 86bd

fc1.bias f4 [64]
0.08661068 -0.012492545 -0.13869789 -0.017738825 0.18280798 0.02277223 -0.07932812 0.06024307
0.051249985 -0.22813256 0.136715 0.25453457 0.073453404 0.051184446 -0.08174257 -0.14386886
0.008195287 0.029916953 0.0024480203 -0.23117377 0.02106535 0.102410465 -0.0092593925 -0.12660393
-0.14761381 0.16400358 -0.072030336 -0.15977514 0.102030426 0.14395672 0.026100539 -0.12457518
0.066623285 0.05215992 -0.16319034 -0.0015252291 -0.0976232 0.07564838 -0.024262765 -0.18116497
-0.15288584 0.031227358 -0.15573059 0.21739373 -0.0024272474 -0.07367874 -0.017313382 -0.18995479
-0.11014879 -0.004035639 -0.13586539 0.09563391 -0.07897388 -0.10562161 -0.16103949 -0.015992569
0.15068997 -0.03209143 -0.088212006 -0.13666001 0.062964424 0.026614357 -0.031894784 0.063560836
00000000: f160 b13d 88ad 4cbc d206 0ebe 0351 91bc
00000010: 0432 3b3e d48c ba3c c876 a2bd 70c1 763d
00000020: 81eb 513d 959b 69be 04ff 0b3e 5b52 823e
00000030: bd6e 963d c8a6 513d a668 a7bd 5c52 13be
00000040: 8645 063c 6614 f53c f76e 203b d1b8 6cbe
00000050: 3e91 ac3c 94bc d13d b5b4 17bc 76a4 01be
00000060: 1328 17be 8ef0 273e a484 93bd 189c 23be
00000070: 54f5 d03d 6469 133e ccd0 d53c 4621 ffbd
00000080: ca71 883d a4a5 553d 5e1b 27be 32ea c7ba
00000090: acee c7bd 8aed 9a3d b5c2 c6bc 4f83 39be
000000a0: 1b8e 1cbe 84d0 ff3c d777 1fbe 769c 5e3e
000000b0: 7412 1fbb e1e4 96bd cbd4 8dbc 8283 42be
000000c0: b095 e1bd 653d 84bb 4c20 0bbe b6db c33d
000000d0: 0fbd a1bd 2550 d8bd 89e7 24be d902 83bc
000000e0: 794e 1a3e 4e72 03bd 7fa8 b4bd 9af0 0bbe
000000f0: 7ef3 803d 5a06 da3c 1ba4 02bd 2f2c 823d

fc2.weight f4 [64, 64]
-0.043052174 0.10833005 0.049726207 0.122062154 -0.22252813 -0.23652773 -0.23669589 0.0705964
-0.09313365 -0.013930673 -0.081015155 -0.15009323 0.0010360744 0.066505685 -0.06057408 0.15364689
-0.2580929 -0.5311827 0.010664972 -0.057851978 -0.20319167 -0.3879051 -0.1401032 0.08890025
-0.022934882 -0.05367372 0.14287746 -0.053428948 0.16333045 -0.14018533 -0.024873104 -0.20382677
0.05680194 -0.22505698 -0.02235119 0.2544463 -0.23904376 0.21573453 -0.123052105 -0.26422378
-0.34849015 0.21493733 -0.25756568 -0.08559607 0.0034921116 -0.033393983 -0.06544841 0.034098633
-0.29405022 0.07339637 -0.10466467 -0.08067951 -0.12493131 0.16421865 0.001570358 0.093186095
-0.041081015 -0.066492975 0.017088328 -0.3108371 0.13731186 0.7505573 -0.41019335 0.064072005
-0.032957524 0.009446722 -0.058601186 -0.141384 0.054511175 0.16219594 -0.2439039 -0.04428895
-0.12890585 -0.09476107 -0.12110791 0.24456069 -0.17616798 0.036981367 0.003279823 0.13756923
-0.07599768 0.28143185 -0.010479193 -0.067088716 -0.1176362 -0.10303396 -0.14400741 -0.12942652
-0.13778263 -0.112304695 -0.3047102 -0.29558837 -0.051226743 0.043047838 0.0036097795 0.16635773
-0.074440174 0.058684397 0.11885054 -0.055887703 -0.18639067 -0.0826183 -0.18240084 -0.2654668
-0.12178819 0.21137781 0.07980378 -0.11940172 -0.12345156 -0.06428908 -0.15430993 -0.1415912
-0.1351055 -0.2182907 -0.10123031 0.16106135 -0.035453726 -0.42351002 -0.014250318 -0.13978823
0.030498298 -0.12320474 0.19762145 -0.07003173 -0.32471532 -0.20718293 0.0055107167 -0.14175095
-0.22014211 -0.1370345 -0.3364154 -0.022785904 0.0025063811 0.014834116 -0.14731348 0.089380205
0.10951535 0.035393916 -0.10123579 0.11009617 0.079667486 -0.13847823 0.03905896 0.12731858
0.02480375 0.23918493 -0.16331674 0.037024915 -0.19000977 0.26235813 0.19530375 0.04898723
-0.1255052 -0.09654695 0.22674796 0.019192964 -0.18609288 0.11935537 0.49796277 -0.03854735
-0.077118106 -0.04657729 -0.01540379 -0.051141396 0.17082494 0.10028652 -0.43216452 -0.036701538
-0.06703149 -0.12133038 -0.3298513 0.020627623 0.086453624 0.08498371 0.09403903 -0.13704558
-0.46270007 -0.26999494 -0.21232584 0.045767453 -0.0067517273 0.40865842 -0.19622359 -0.19066897
0.032716554 -0.19394563 0.20145264 -0.38378108 -0.22446316 0.07968713 -0.02196628 0.03062764
-0.16157395 -0.10834221 -0.08137969 0.15565659 -0.1394526 0.06749436 0.19881158 0.051990855
-0.04985682 -0.14031655 0.0008096184 0.09390144 -0.16491623 0.13865009 -0.05687404 0.17942314
-0.0921539 0.13707432 -0.23742779 -0.14797135 -0.051791247 0.34924588 0.10729286 -0.077789515
0.060590245 -0.05145107 0.110137485 0.09223597 0.34683108 -0.15130043 0.077345386 -0.19743863
-0.17315163 0.0032435379 -0.18418963 0.15360624 0.15522121 0.16295587 0.2715539 -0.092880554
0.100234814 0.3074842 0.07066342 -0.023084149 -0.2196521 -0.097969726 0.09037981 0.09216319
0.26838195 -0.038859807 -0.22374074 0.009463854 0.15757693 0.27798128 -0.0837472 -0.00547276
-0.10349122 -0.22870511 -0.0061011342 -0.15610747 -0.15145311 0.23838948 -0.31342974 0.059401374
00000000: 7a57 30bd 25dc dd3d b5ad 4b3d b9fb f93d
00000010: 6ade 63be 5334 72be 6860 72be d894 903d
00000020: dbbc bebd 7a3d 64bc 46eb a5bd 0ab2 19be
00000030: e3cc 873a 2234 883d 871c 78bd 9c55 1d3e
00000040: c124 84be 97fb 07bf 22bc 2e3c 32f6 6cbd
00000050: 7a11 50be 7f9b c6be 3777 0fbe 5611 b63d
00000060: efe1 bbbc fad8 5bbd 784e 123e 50d8 5abd
00000070: 1940 273e be8c 0fbe aec2 cbbc f7b7 50be
00000080: 27a9 683d 5675 66be d819 b7bc c946 823e
00000090: e3c7 74be 83e9 5c3e be02 fcbd 5748 87be
000000a0: 4d6d b2be 8818 5c3e a6df 83be fe4c afbd
000000b0: e9db 643b 21c8 08bd d109 86bd 02ab 0b3d
000000c0: c08d 96be d650 963d 6e5a d6bd 4d3b a5bd
000000d0: fddb ffbd ef28 283e 79d4 cd3a 5ad8 be3d
000000e0: 9144 28bd 782d 88bd d2fc 8b3c 0a26 9fbe
000000f0: 7b9b 0c3e 8624 403f dd04 d2be 2f38 833d
00000100: 78fe 06bd 6dc6 1a3c cc07 70bd f8c6 10be
00000110: 1c47 5f3d b116 263e f2c1 79be 5468 35bd
00000120: e5ff 03be 1812 c2bd 6d07 f8bd 1e6e 7a3e
00000130: 6165 34be c679 173d 4df2 563b f3de 0c3e
00000140: aca4 9bbd d617 903e ecb0 2bbc cf65 89bd
00000150: 3feb f0bd 7803 d3bd ae76 13be 6388 04be
00000160: e416 0dbe 0100 e6bd fa02 9cbe 5c57 97be
00000170: 22d3 51bd ee52 303d 0d92 6c3b ae59 2a3e
00000180: 1774 98bd 0d5f 703d e967 f33d 81ea 64bd
00000190: 32dd 3ebe c933 a9bd 49c7 3abe 44eb 87be
000001a0: 166c f9bd 6d73 583e 2a70 a33d e488 f4bd
000001b0: 2cd4 fcbd fea9 83bd 6c03 1ebe 49fd 10be
000001c0: 1959 0abe 9987 5fbe d651 cfbd 44ed 243e
000001d0: ed37 11bd 4ed6 d8be 2a7a 69bc a524 0fbe
000001e0: 91d7 f93c c452 fcbd 475d 4a3e cc6c 8fbd
000001f0: 1641 a6be c327 54be 3e93 b43b 2927 11be
00000200: ef6c 61be c652 0cbe a43e acbe 81a9 babc
00000210: 1942 243b cb0a 733c 58d9 16be f80c b73d
00000220: 9549 e03d 36f9 103d b654 cfbd 1a7a e13d
00000230: b528 a33d 3dcd 0dbe 4afc 1f3d cd5f 023e
00000240: 3c31 cb3c e5ec 743e 813c 27be 70a7 173d
00000250: ec91 42be ce53 863e b5fd 473e d5a6 483d
00000260: 6f84 00be 68ba c5bd 9e30 683e 903a 9d3c
00000270: 228f 3ebe 9770 f43d faf4 fe3e d3e3 1dbd
00000280: 19f0 9dbd d4c7 3ebd 2e60 7cbc a479 51bd
00000290: bcec 2e3e 0563 cd3d ab44 ddbe 5a54 16bd
000002a0: ce47 89bd 107c f8bd 45e2 a8be 43fb a83c
000002b0: 990e b13d f00b ae3d 8997 c03d ad55 0cbe
000002c0: 06e7 ecbe c73c 8abe f26b 59be a776 3b3d
000002d0: 983d ddbb ad3b d13e d6ee 48be ba3e 43be
000002e0: cb01 063d af99 46be 9a49 4e3e f47e c4be
000002f0: acd9 65be 0233 a33d a1f2 b3bc d1e6 fa3c
00000300: a473 25be 85e2 ddbd 65aa a6bd 7164 1f3e
00000310: aacc 0ebe 7c3a 8a3d 4395 4b3e 5df4 543d
00000320: aa36 4cbd 24af 0fbe 923c 543a 664f c03d
00000330: cddf 28be 4afa 0d3e c1f4 68bd b3ba 373e
00000340: 2fbb bcbd 365d 0c3e 4520 73be cd85 17be
00000350: 0f23 54bd 5bd0 b23e 5cbc db3d 1c50 9fbd
00000360: 7a2d 783d 5bbe 52bd c38f e13d 36e6 bc3d
00000370: d893 b13e 80ee 1abe 4267 9e3d 5a2d 4abe
00000380: a94e 31be 8991 543b 359c 3cbe f44a 1d3e
00000390: 4ff2 1e3e e7dd 263e 1d09 8b3e 2938 bebd
000003a0: e947 cd3d 926e 9d3e fcb7 903d f81a bdbc
000003b0: 7bec 60be 5aa4 c8bd 0d19 b93d 0ec0 bc3d
000003c0: 5c69 893e 762b 1fbd 4b1c 65be 480e 1b3c
000003d0: d95b 213e 9053 8e3e a783 abbd d754 b3bb
000003e0: 34f3 d3bd ac31 6abe 06ec c7bb a3da 1fbe
000003f0: 8616 1bbe 5f1c 743e dd79 a0be db4e 733d

fc2.bias f4 [64]
-0.03824989 -0.047642253 0.023783397 -0.07320482 0.21155556 -0.022127671 -0.082997784 -0.037073843
0.112676755 0.5059407 -0.068945 0.25913692 0.1360121 0.0087218145 -0.09181549 0.19960573
-0.02628704 0.13268259 0.005180616 0.41239402 0.28375667 0.59784424 -0.13682684 -0.11332805
-0.06779811 -0.24840114 0.16557766 0.009798512 -0.17375444 0.10182161 -0.028659062 0.1367973
0.10635557 0.35549065 0.010506547 -0.01476896 -0.004988802 0.043899313 0.16747619 0.06055751
-0.10066329 0.54189813 0.28174397 0.03361623 0.07749226 -0.15078466 0.24408735 -0.10404448
0.025547199 0.006622334 -0.13978882 0.463971 0.029792707 -0.0010752835 0.24245183 -0.23070659
-0.24575163 -0.14946419 0.07347328 -0.09232252 -0.01760481 0.4038047 0.09694444 -0.1535641
00000000: ebab 1cbd 8624 43bd 66d5 c23c 69ec 95bd
00000010: 05a2 583e 1745 b5bc befa a9bd beda 17bd
00000020: 12c3 e63d 5485 013f 0933 8dbd 98ad 843e
00000030: c246 0b3e f1e5 0e3c c209 bcbd 7265 4c3e
00000040: eb57 d7bc f2dd 073e 28c2 a93b 4f25 d33e
00000050: 8e48 913e 520c 193f 561c 0cbe 8918 e8bd
00000060: bcd9 8abd de5c 7ebe 318d 293e f089 203c
00000070: afec 31be d987 d03d 69c6 eabc 9714 0c3e
00000080: f3d0 d93d df02 b63e a723 2c3c 82f9 71bc
00000090: 1b79 a3bb c4cf 333d e17e 2b3e 270b 783d
000000a0: 8e28 cebd d6b9 0a3f bf40 903e 2cb1 093d
000000b0: 43b4 9e3d 4b67 1abe 09f2 793e 4615 d5bd
000000c0: 5c48 d13c 2a00 d93b cd24 0fbe 9b8d ed3e
000000d0: d60f f43c 87f0 8cba 4b45 783e 593e 6cbe
000000e0: 51a6 7bbe 240d 19be 2979 963d 9713 bdbd
000000f0: f637 90bc 7dbf ce3e ce8a c63d e83f 1dbe

fc3.weight f4 [4, 64]
0.58840215 0.056515127 -0.07123561 -0.19522573 0.24457717 0.0117134 -0.35652506 -0.14235093
0.39728183 0.14763138 -0.2010307 0.28882292 0.3725009 0.23490432 -0.007805037 -0.09529466
0.257478 0.2502038 0.13867825 0.21199688 0.13480306 0.20589335 -0.085890174 -0.120078124
-0.40773484 -0.15479963 0.15696612 0.14337315 -0.2991445 0.055757053 -0.15790144 0.10820159
0.31225288 0.22302628 0.0586105 0.21168669 0.050388183 0.08053973 0.1491539 0.1238402
0.09714109 0.15612467 0.12002587 -0.21027093 0.09215474 -0.028764347 0.12156769 0.30457127
0.3331067 0.13868447 -0.14858566 0.25968468 -0.101939335 0.19916698 0.16510336 -0.11483766
-0.31461737 -0.028186733 0.020573128 0.20449045 -0.14136477 0.18626063 0.059190508 -0.103565134
0.60847396 0.045788188 -0.04411948 -0.017941156 0.21861924 0.09917128 -0.3032341 -0.16322793
0.3452439 0.13325484 -0.009416251 0.16487338 0.28455153 0.32010603 -0.020247638 0.1457704
0.2103091 0.13787913 0.26031753 0.16135518 0.19107983 0.2780286 -0.17209457 0.018174611
0.16780876 -0.22405739 0.034311816 0.09095981 -0.17022821 0.1055444 -0.12028837 0.17461234
0.13465291 0.1947979 0.15011548 0.25473642 0.012070374 0.14027259 0.21203865 0.20727107
0.09240194 0.1719379 0.10915581 0.0133577995 0.17103341 -0.112010136 0.14314167 -0.05914657
0.41386387 0.14997329 -0.13894378 0.16986029 0.09312457 0.34983414 0.19939415 -0.19291022
-0.2146704 -0.051769026 0.04315035 -0.1924772 -0.1401608 0.11114965 0.0331063 -0.16489746
0.23518185 0.34074628 0.34760085 -0.07056533 0.1308911 0.04141672 0.053546228 -0.13851218
0.3089732 0.17365292 -0.5848316 0.24312761 0.26037395 0.0712135 -0.074394986 0.23741136
0.5432722 0.0659963 -0.08365651 0.077538274 0.17539586 0.271678 -0.29961663 0.24163724
0.09573458 -0.018534468 0.2580189 0.1615508 -0.43098384 0.22343388 -0.32319808 -0.041041736
-0.03474284 0.26967657 0.3087045 0.35334086 -0.17511043 0.30849984 0.2623811 0.18076119
0.4504921 0.21198714 0.13171324 0.13994648 0.08332513 -0.18602435 0.12607156 0.26997387
0.5059818 -0.0018791821 -0.1807922 0.30815068 -0.37885794 0.015213336 0.17595088 -0.26677793
-0.20591617 -0.04435402 -0.42281958 -0.37867963 -0.33232015 0.21774364 -0.22594126 -0.3039561
0.37454665 0.36443484 0.065546244 -0.24052241 0.04186684 0.33000708 -0.46911868 -0.04657514
0.39806387 0.20254405 -0.07919484 0.05658761 0.40486026 0.14971542 0.05926323 0.113274336
0.65774405 0.077000596 0.3897515 0.19206189 0.055163722 0.28300413 -0.2529087 0.142114
-0.17966917 -0.3831311 0.55524176 0.26036653 0.07585177 -0.06971163 -0.03150468 0.097325966
-0.032707147 0.24773349 -0.032334324 0.25443792 -0.09742685 0.28524873 0.20393829 0.363916
-0.020527707 0.21391122 0.18800803 -0.5928035 0.39056942 -0.24306728 0.13208762 -0.35220543
0.20048934 0.068124324 0.08003657 0.22207962 -0.21827969 0.3555409 0.18886626 -0.00962645
-0.13798285 -0.081450835 -0.38263506 -0.47272348 -0.26879588 0.09719626 -0.19897483 0.01576724
00000000: 86a1 163f 687c 673d fae3 91bd 41e9 47be
00000010: 7072 7a3e 8fe9 3f3c 748a b6be 71c4 11be
00000020: 8668 cb3e ae2c 173e feda 4dbe 99e0 933e
00000030: 70b8 be3e c28a 703e 65c1 ffbb d929 c3bd
00000040: 28d4 833e b61a 803e ac01 0e3e b615 593e
00000050: d009 0a3e b5d5 523e 30e7 afbd 85eb f5bd
00000060: 9fc2 d0be cb83 1ebe babb 203e 69d0 123e
00000070: 7829 99be 8261 643d eab0 21be cc98 dd3d
00000080: 9cdf 9f3e 0061 643e 9011 703d 65c4 583e
00000090: d763 4e3d 04f2 a43d cdbb 183e ee9f fd3d
000000a0: e8f1 c63d 25df 1f3e 20d0 f53d 4351 57be
000000b0: a0bb bc3d 35a3 ebbc 7bf8 f83d c4f0 9b3e
000000c0: f68c aa3e 4d03 0e3e d726 18be 64f5 843e
000000d0: 92c5 d0bd 6ef2 4b3e db10 293e 0230 ebbd
000000e0: 8715 a1be dde7 e6bc fa88 a83c f265 513e
000000f0: edc1 10be 1bbb 3e3e bf71 723d f519 d4bd
00000100: f3c4 1b3f 658c 3b3d a1b6 34bd 55f9 92bc
00000110: b9dd 5f3e 501a cb3d 8041 9bbe 3925 27be
00000120: cfc3 b03e f573 083e 9f46 1abc 91d4 283e
00000130: bdb0 913e f0e4 a33e 60de a5bc d644 153e
00000140: 455b 573e 3030 0d3e 5748 853e 4b3a 253e
00000150: 6eaa 433e c459 8e3e 8f39 30be ece2 943c
00000160: 0fd6 2b3e 4d6f 65be 8c8a 0c3d 2349 ba3d
00000170: 4e50 2ebe aa27 d83d c059 f6bd 94cd 323e
00000180: 74e2 093e 1a79 473e dfb7 193e d06c 823e
00000190: d1c2 453c 9ea3 0f3e a920 593e de3e 543e
000001a0: 3a3d bd3d 7d10 303e 158d df3d acda 5a3c
000001b0: 6223 2f3e 9265 e5bd bb93 123e ac43 72bd
000001c0: f7e5 d33e 9992 193e 4747 0ebe dbef 2d3e
000001d0: 18b8 be3d 761d b33e fb2d 4c3e 428a 45be
000001e0: 8fd2 5bbe c20b 54bd 6cbe 303d be18 45be
000001f0: 5086 0fbe 6da2 e33d 799a 073d e1da 28be
00000200: 83d3 703e 4c76 ae3e bdf8 b13e 8e84 90bd
00000210: 5108 063e 94a4 293d 4a53 5b3d 23d6 0dbe
00000220: bc31 9e3e 12d2 313e 86b7 15bf 72f6 783e
00000230: bc4f 853e 62d8 913d 665c 98bd f71b 733e
00000240: e313 0b3f 1129 873d 1b54 abbd 63cc 9e3d
00000250: f99a 333e 6119 8b3e 5a67 99be c16f 773e
00000260: 7e10 c43d 99d5 97bc 0e1b 843e 936d 253e
00000270: eaa9 dcbe dacb 643e 387a a5be 611b 28bd
00000280: 824e 0ebd 0c13 8a3e 840e 9e3e 18e9 b43e
00000290: 2650 33be b1f3 9d3e d156 863e 7619 393e
000002a0: e7a6 e63e 2813 593e d6df 063e 214e 0f3e
000002b0: 5ea6 aa3d 2b7d 3ebe e718 013e 043a 8a3e
000002c0: 0688 013f e34e f6ba 9721 39be edc5 9d3e
000002d0: abf9 c1be 5b41 793c 782c 343e 1e97 88be
000002e0: b0db 52be 90ac 35bd cf7b d8be 4ce2 c1be
000002f0: de25 aabe 30f8 5e3e 255d 67be 22a0 9bbe
00000300: 94c4 bf3e 3497 ba3e 1c3d 863d 824b 76be
00000310: 907c 2b3d b0f6 a83e 5330 f0be 93c5 3ebd
00000320: 07cf cb3e b567 4f3e e730 a2bd 69c8 673d
00000330: d849 cf3e 004f 193e 00be 723d 60fc e73d
00000340: ea61 283f 7db2 9d3d 828d c73e dfab 443e
00000350: 5bf3 613d ebe5 903e 407d 81be 5586 113e
00000360: 32fb 37be c229 c4be 5324 0e3f c34e 853e
00000370: 2c58 9b3d f9c4 8ebd 0d0b 01bd d652 c73d
00000380: eef7 05bd d9ad 7d3e ff70 04bd b045 823e
00000390: ba87 c7bd 1f0c 923e 33d5 503e 3353 ba3e
000003a0: b929 a8bc 8b0b 5b3e 2d85 403e f8c1 17bf
000003b0: b7f8 c73e a1e6 78be fa41 073e 4554 b4be
000003c0: 144d 4d3e c484 8b3d 37ea a33d d768 633e
000003d0: b684 5fbe 7509 b63e 2866 413e 42b8 1dbc
000003e0: 604b 0dbe b2cf a6bd bee8 c3be d008 f2be
000003f0: 9d9f 89be d50e c73d 0fc0 4bbe 4d2a 813c

fc3.bias f4 [4]
0.35626778 0.29727605 0.21496509 0.22236195
00000000: bb68 b63e 9134 983e cf1f 5c3e dab2 633e
